model89FashionMNIST.pth (torch, 34223 bytes, 10 tensors)

layers.0.weight f4 [10, 1, 3, 3]
000000 77 1f ad be d7 8d 86 3e fb 08 1b be f8 ce bd 3e
       -0.33813068 0.2628009 -0.15140145 0.37071967
000010 ee 2f 91 bd 47 8a f2 3e 08 96 b5 3d 8f 95 9f 3e
       -0.0708922 0.47371122 0.08866507 0.31168792
000020 c4 eb c0 3d ac c8 8a be 0f c1 b8 3e a3 79 99 3e
       0.09419969 -0.27106225 0.36084792 0.29975614
000030 5f 6f df be fa 74 05 be 18 f7 cc 3e 75 0d e8 3d
       -0.43639657 -0.13032904 0.40032268 0.11330692
000040 84 fb ea 3d dc 30 fa 3e 48 4b ee 3d 7d 1f 0a 3f
       0.11473754 0.48865402 0.116354525 0.539543
000050 cf 64 6e 3d d7 b9 3f 3e f1 84 00 3f ae 8c d7 be
       0.058201607 0.18723236 0.5020285 -0.42099518
000060 fe 88 02 3e 43 8e fb 3e 66 18 c5 be 5c 42 17 bf
       0.12747571 0.49131975 -0.38495177 -0.5908563
000070 0d 92 c2 bd fe 50 95 be 3e 32 06 bf a5 5a 24 bf
       -0.09500513 -0.29163355 -0.52420413 -0.6420081
000080 e8 56 a4 be da 95 1a bf bb 9a 08 bf 7d ee 6b 3e
       -0.32097554 -0.60384905 -0.533611 0.23040195
000090 65 dd 02 3f 3c bc 18 3e 6f 34 90 3e 15 0c cc be
       0.5111907 0.14915556 0.28165004 -0.39852968
0000a0 4b 51 48 bf c4 1a 50 3b 0f 77 48 bf 8f 22 b6 bf
       -0.78249043 0.0031754235 -0.7830667 -1.4229296
0000b0 68 00 8d be 5f 70 1b 3f 20 05 c0 3e a9 63 e8 3e
       -0.27539372 0.6071834 0.3750391 0.45388535
0000c0 88 d1 c1 be a7 78 5e be 63 39 b1 3d 0a ac bf be
       -0.37855172 -0.21725713 0.08653524 -0.37435943
0000d0 6c af 29 bf a4 70 63 bd d5 4b ae 3e 1d 4f c8 3e
       -0.662833 -0.055527344 0.3404223 0.3912286
0000e0 a2 b8 6f bd bd 40 a1 3e b8 28 8d 3e 3c 4d 2d bd
       -0.05852569 0.31494704 0.27570128 -0.042309985
0000f0 9d d8 74 be b0 66 81 3e 6b 09 c6 bd 5d 3a 11 bf
       -0.23910756 0.25273657 -0.09669765 -0.5672968
000100 7b 86 24 3e e4 06 2e bc 46 c0 71 bf 7b 4d 7d bf
       0.16066925 -0.01062176 -0.9443401 -0.9894635
000110 45 10 9e bd 5d f5 07 bf c8 cb 5a bf 9c 58 1f bd
       -0.07717947 -0.5310877 -0.85467196 -0.038902864
000120 12 3c 98 be 24 a0 81 3e 8f 0e ba 3e 64 0d 33 be
       -0.2973333 0.2531749 0.36339232 -0.17485577
000130 f2 d9 5d 3e 3e 5e 5a bd 9f f5 84 bb 36 88 bc 3e
       0.21665171 -0.053312533 -0.0040576006 0.3682267
000140 94 41 25 3e b2 1b ba 3e 76 6f 3d be e4 f2 77 be
       0.16138297 0.36349255 -0.1849955 -0.24213749
000150 6e 48 64 bd d7 37 ed 3d f0 2e ed be cc 62 8b 3e
       -0.055733137 0.11582916 -0.46324873 0.27223814
000160 d5 ac 9d 3e ab 45 c7 be
       0.30795923 -0.3892034

layers.0.bias f4 [10]
000000 15 7f 9d 3e 67 de be bd bf 8e e5 3d e5 02 03 be
       0.30761018 -0.09319764 0.11208867 -0.12794073
000010 85 a4 12 3e 86 85 3a be 63 0f 38 3e 41 3f c7 3c
       0.14320572 -0.18214998 0.1797462 0.024322154
000020 c7 e1 2f 3c 8f fd bd 3e
       0.010734982 0.37107512

layers.2.weight f4 [10, 10, 3, 3]
000000 56 14 27 3e 77 46 d9 3d 82 ac bf bd 29 1d bd 3c
       0.16316351 0.10609143 -0.09359075 0.023085194
000010 62 ec a7 39 f4 02 bf 3c c1 a2 27 3e af 9d e8 3d
       0.0003202884 0.023316838 0.1637068 0.11358201
000020 a1 02 57 3d a2 af 68 3c 27 7d 46 be eb 70 0c 3d
       0.05249274 0.01420203 -0.1938368 0.034287374
000030 32 6f 86 3d d1 76 49 be e0 7e b7 bd f7 07 0b 3e
       0.065641776 -0.19674231 -0.08959746 0.13577257
000040 73 9a 08 be c2 58 b3 bd 69 9e 54 3c 1e 19 54 3e
       -0.13340168 -0.087571636 0.012977221 0.20712706
000050 65 4e 27 be 80 ed 08 3e 48 3f 6b 3e fe 90 88 be
       -0.16338499 0.13371849 0.22973359 -0.2667312
000060 9e c3 b9 3c f5 3a f0 3d 78 e8 2b be c0 45 2b bc
       0.022676285 0.11729995 -0.16787899 -0.010453641
000070 4b 3d 1a be d3 78 91 bc 82 50 81 bd e0 28 f1 3c
       -0.15062444 -0.017757809 -0.06314184 0.029438436
000080 49 c3 b2 3d 62 5d 8e bd 4f 25 28 be 20 4a f4 39
       0.08728654 -0.06951405 -0.16420482 0.00046594534
000090 a9 3d 6d be 13 61 b2 3c 13 e6 8e 3e 62 76 75 be
       -0.23168053 0.021774804 0.27909908 -0.2397094
0000a0 4a 2e 62 3d db 50 a1 3e 0c a5 1f be eb 24 64 be
       0.055219926 0.31507 -0.15590304 -0.22279708
0000b0 f4 d1 6e 3e 7b a2 58 be 6c f5 04 be 0d 63 1b bc
       0.23322278 -0.21155731 -0.12984246 -0.009484065
0000c0 e9 d1 50 be df d8 56 be af 35 ad 3d 6a bc 08 be
       -0.20392574 -0.20981167 0.08457505 -0.13353124
0000d0 24 52 13 be 16 37 21 be 4a 18 30 3e 46 83 cc bc
       -0.14386803 -0.1574367 0.17196766 -0.02496494
0000e0 31 f8 10 be 6c dc 09 3d a2 bb eb 3d 67 fc 04 be
       -0.14157178 0.033657476 0.115103975 -0.12986909
0000f0 5e ae 2e 3e 36 29 15 3e 3f f2 1f bd bb 1b 1f be
       0.17058703 0.14566502 -0.039049383 -0.15537922
000100 5c a7 08 be f5 67 f9 3c ee a6 42 be 42 db 86 bd
       -0.13345093 0.030445078 -0.19008991 -0.06584789
000110 9b ce 8c 3d 5c 5a 84 be 66 d2 63 be a4 25 07 3e
       0.06875344 -0.2585019 -0.2224823 0.13197953
000120 0b 74 53 3e fd 57 7d bc db 90 8a be e8 c6 be 3d
       0.20649736 -0.015462873 -0.2706364 0.09315282
000130 72 3e e9 bd 9f 4c 75 be 33 ad ce 3d 8d b1 ef bb
       -0.113888636 -0.2395501 0.10091629 -0.007314867
000140 75 26 3f be ca 9f 88 bd e4 62 8b 3e de fe 82 bb
       -0.18667014 -0.06671102 0.27223885 -0.0039976677
000150 6f 10 30 be 27 09 3b 3e 7a 7f 90 3c 0f 82 0e be
       -0.17193769 0.1826521 0.01763891 -0.13916801
000160 f4 be d1 3d fb 2b 3a bd 93 36 4f 3d 40 e8 bb 3b
       0.102414995 -0.0454521 0.050589155 0.0057344735
000170 ca 42 a9 bd fa ad 7a 3d f4 4c 3d be 1d 59 4f 3c
       -0.08264692 0.061201073 -0.18486387 0.012655524
000180 16 f7 dd 3b 52 37 fd 39 37 07 54 ba f8 09 b2 be
       0.0067738397 0.00048297137 -0.00080882333 -0.3477323
000190 d4 f0 30 be 7f 6d 28 3d 31 68 a4 be be 7b a2 be
       -0.17279369 0.04112005 -0.32110742 -0.31735033
0001a0 5f 56 1a be af a8 8b be c1 bb f3 bd fa d9 d5 bd
       -0.1507201 -0.27277133 -0.119010456 -0.10441966
0001b0 98 91 ad 3d 60 e2 00 3e 45 d7 d8 bd c2 ee 8a 3d
       0.084750354 0.12586355 -0.105879344 0.06783821
0001c0 51 ef 22 be 37 bc b7 bd f5 91 11 bd f2 a8 88 3d
       -0.15911604 -0.08971446 -0.035539586 0.06672849
0001d0 7c 82 35 be d2 7f dc bc ce 27 bf bd 46 8b 32 bd
       -0.17725557 -0.026916418 -0.09333764 -0.043589853
0001e0 ee 26 b7 bd 96 ff cb bd 47 0f 92 3d 47 50 4c be
       -0.08942972 -0.099608585 0.0713182 -0.19952498
0001f0 ec 62 c4 bd 7d 77 f2 3d 45 1d 32 be 76 30 b2 3e
       -0.0958918 0.11839197 -0.17393978 0.34802598
000200 5c 05 f0 3e d6 24 b4 3e 6e b2 10 3f ec 31 0b 3f
       0.4687909 0.35184354 0.5652226 0.5437305
000210 2a 4f 5c 3e df 6c 31 3e 13 14 61 3e 13 a2 54 be
       0.21514574 0.17326687 0.21980314 -0.20764951
000220 ab b3 34 bc e6 91 4a 3e f6 ba 6c bd bd c2 d8 3d
       -0.011029164 0.19782218 -0.057795487 0.105840184
000230 d4 06 99 bd 30 99 b2 3c f0 47 a8 bd 84 e8 cc bd
       -0.074720055 0.021801561 -0.08216846 -0.10005286
000240 c4 24 a8 3d c8 60 ee 3d 3d cc f6 3d 51 4d 2a 3e
       0.082101375 0.11639553 0.12050674 0.16631056
000250 64 7e 96 bd a5 85 b7 bc b9 1f e8 bd a9 bb 23 be
       -0.07348326 -0.022402594 -0.113341756 -0.15989555
000260 fc 96 31 be e2 31 f5 bd 2b a1 d0 bd b4 3c d2 bb
       -0.17342752 -0.11972405 -0.1018699 -0.006415928
000270 c2 e8 6c be 82 e6 fd bd 27 a4 d1 3e 5c d5 06 bd
       -0.23135665 -0.123974815 0.4094555 -0.03291832
000280 ba 8c af 3d b3 fc 96 3e 76 37 ca bd 52 ad 02 be
       0.08571763 0.2948967 -0.098738596 -0.12761429
000290 b0 1c 12 3c 2c 32 9f be fc 3d a0 be 91 a1 62 be
       0.008917972 -0.31092966 -0.3129729 -0.22131945
0002a0 f3 65 2e be a8 e2 bb bb d7 fd 24 be 23 41 e8 bc
       -0.17031078 -0.0057338066 -0.16112457 -0.028351372
0002b0 1a f6 b5 3d b8 ee ca bd 35 b3 b5 3d fc e1 11 3e
       0.08884831 -0.09908813 0.08872072 0.14246362
0002c0 a1 56 89 3d 39 a6 a1 3d af 02 0e 3e 18 4e 64 3e
       0.06705976 0.078930326 0.13868211 0.22295415
0002d0 6e 13 2a bd e6 5b f5 3c 4a a3 39 3c e3 1b ce 3d
       -0.041522436 0.029951047 0.011330435 0.10063913
0002e0 3a a3 2d 3d f7 46 f1 3d f0 31 97 bc b8 8c a9 bc
       0.042391993 0.117811136 -0.01845643 -0.020696983
0002f0 69 ba b8 3d f1 e3 de bd 43 89 28 be ca c6 50 3e
       0.0901993 -0.1088332 -0.16458611 0.20388332
000300 4a 10 9a bd f2 8c da bd 9b 22 cd 3d c0 ca 70 3c
       -0.07522638 -0.106714144 0.10016366 0.014696777
000310 a0 6b 9f bd 8f 73 85 3e 3d 3c 5e 3e 82 0b f1 bd
       -0.077842 0.26064727 0.21702667 -0.11769773
000320 bc 51 cb bd a6 07 97 3e a9 af 52 bd fd 7d f2 bd
       -0.09927699 0.29498023 -0.051437054 -0.118404366
000330 e4 da 4f 3e 38 c8 c2 3c ca 80 01 be e8 79 20 bd
       0.20298344 0.023777112 -0.12646785 -0.03917876
000340 e3 89 12 be ff a2 82 bc 28 f9 2b bd 43 a5 e9 bd
       -0.14310412 -0.015946863 -0.04198566 -0.11408474
000350 42 18 b2 3b e3 c9 d6 bd b5 68 2c bd 1f 68 28 3d
       0.0054350207 -0.104877256 -0.042092044 0.041114923
000360 09 5a 06 be f7 e9 b6 3d 41 5c a0 3e 0f 25 32 be
       -0.13120283 0.08931344 0.31320384 -0.17396949
000370 1f bf 1b 3e ca 83 85 3e b3 cf 80 be bb ea d6 3d
       0.15209626 0.2607711 -0.25158462 0.1049399
000380 42 1f 6e 3d 8e 14 1e be 74 f9 83 3d b0 29 43 3b
       0.05813528 -0.15437528 0.06444064 0.0029779486
000390 37 21 10 be ab 61 72 3d 7a 1b a7 3d 73 1b 68 be
       -0.1407517 0.059175175 0.081595376 -0.22666721
0003a0 b3 0e 36 bd 6f a2 13 bc 2b de 44 3e b8 89 7e 3d
       -0.044447612 -0.009010895 0.19225375 0.062143058
0003b0 b0 76 a6 bd 50 46 45 3e 96 d7 8e bd e7 eb 60 bc
       -0.081281066 0.19265103 -0.069747135 -0.0137281185
0003c0 e6 a0 35 3e cc 9b 69 bd 27 b8 01 be 45 f9 bd bc
       0.17737159 -0.057033345 -0.12667905 -0.02319015
0003d0 ca 16 77 bd 64 8a 11 3e 74 3a 92 3d 97 f7 d1 bb
       -0.060324468 0.14212948 0.07140055 -0.006407689
0003e0 ba 63 89 3d 39 68 98 3c da a2 e3 bd b5 6e 15 bd
       0.067084745 0.018604385 -0.11115046 -0.03648253
0003f0 e2 54 17 3d df 7a 04 be e6 cd 85 bb 27 d7 0f bd
       0.036946185 -0.12937497 -0.004083383 -0.035117295

layers.2.bias f4 [10]
000000 7b d1 8f 3d d6 a2 49 3d 38 4d 28 bd 9d 4c 06 3e
       0.07022377 0.049227558 -0.041089267 0.13115163
000010 30 1e 21 3e 42 bf a2 bc 4e 5a 97 bd 13 0c 01 be
       0.15734172 -0.01986659 -0.07390271 -0.12602262
000020 55 ac 8e 3d e2 38 a4 3d
       0.069664635 0.08018662

layers.5.weight f4 [10, 10, 3, 3]
000000 6f 3b 6a 3e 4d 5b 5d bd 3b 7d 84 bc ab 20 35 3e
       0.22874235 -0.05404215 -0.016172996 0.17688243
000010 ca 2d 81 be 1e 05 43 be 5a 3b 80 bd 62 48 cd 3b
       -0.25230247 -0.19044921 -0.062613204 0.006264732
000020 7a 77 81 bd 0e fc b4 3d af cc 2a be 29 c7 18 bf
       -0.063216165 0.08837138 -0.16679643 -0.59678894
000030 c5 14 c2 3e e7 8c 21 3c ed 52 7e be c2 e5 61 bc
       0.3790647 0.009860254 -0.24836321 -0.013787689
000040 d7 10 a3 3d 55 cd 85 bd 42 33 2e 3e bb 7b 19 3b
       0.07962196 -0.065333046 0.17011741 0.0023419696
000050 63 98 06 be 9a 67 ff 3d 3e 8f dc bd e9 f7 c9 bd
       -0.13144068 0.12470932 -0.10769509 -0.09861738
000060 2e e7 c0 3d 19 ec c7 bd 84 a6 17 be 38 16 3d bc
       0.09419094 -0.09761829 -0.14809614 -0.011540942
000070 97 8a 34 3e e0 2f 25 3e fe 2a f6 bd 06 0c f8 bd
       0.17630993 0.16131544 -0.12019919 -0.12111668
000080 43 6d a4 bc 10 88 a9 bd 07 0b 33 be 53 79 c4 3d
       -0.020071631 -0.08277905 -0.17484675 0.09593453
000090 37 78 be 3c e5 e1 1f 3e 2a dd 09 3e 5c 81 1c 3d
       0.023250682 0.15613516 0.13463274 0.038209304
0000a0 59 f9 98 be d6 68 12 bd 2c 2b ad 3d 02 b7 f7 bd
       -0.29877737 -0.03574451 0.084555 -0.12095453
0000b0 f5 ea 18 3d a7 eb ed bc bc 9d 17 be 9f da 9f be
       0.037333447 -0.029043032 -0.14806265 -0.31221482
0000c0 46 e7 d0 3e ad ed 26 3e f3 8a e6 be fc 03 98 3d
       0.40801448 0.16301604 -0.45027885 0.07422635
0000d0 15 ad 59 3e 6b f4 d1 3d db d6 02 be 17 a9 90 3c
       0.21257432 0.10251697 -0.12777273 0.017658753
0000e0 3d 10 04 3e 7e 03 7b be 6d 98 9d be 0d 5e 69 3d
       0.1289682 -0.24513051 -0.30780354 0.05697446
0000f0 28 82 03 be 4c f6 da bd c3 eb ac 3d cf d7 65 bd
       -0.1284262 -0.10691509 0.084434055 -0.056114014
000100 d7 1f 51 bd 1c d0 4b 3e 08 15 a5 bd be 19 b3 be
       -0.051055755 0.19903606 -0.08060652 -0.34980577
000110 d9 d7 9f bd e8 5e 0e be e2 cf 19 be e4 ee 67 bd
       -0.078048415 -0.13903391 -0.15020707 -0.05662431
000120 d1 64 2f 3e 73 3f 30 3d d8 d7 01 bc 97 e8 7b bd
       0.17128302 0.04302926 -0.007924996 -0.06150111
000130 66 c9 e2 bd aa b8 c7 bd 33 2e fa bc aa 3a e0 bd
       -0.1107357 -0.09752019 -0.030539608 -0.10948689
000140 a4 5a 7d bd 82 34 4c 3d 5d cd 98 3c 01 be b5 3d
       -0.06185402 0.049854763 0.018652612 0.08874131
000150 64 6a 8c bd f1 3a 9e be 20 7f a6 3d e9 1d 00 be
       -0.0685623 -0.30904344 0.08129716 -0.1251141
000160 0d 4e 66 bd 10 11 8c bd 25 88 dd 3b 24 e9 c2 3c
       -0.05622678 -0.06839192 0.0067606145 0.02379281
000170 b9 7d 04 3e 5c 75 99 be 9d 22 82 bd ae 6a 80 3e
       0.12938584 -0.2997235 -0.06354258 0.2508139
000180 48 60 83 be df 82 ad 3d f4 ef fd 3d 59 5c 00 3e
       -0.25659394 0.08472227 0.12399283 0.12535228
000190 9b 08 0c be 77 ce 0d bf f4 fe 90 be 7c ce a9 be
       -0.13675158 -0.55393165 -0.28319514 -0.33165348
0001a0 e3 af 01 3d 38 3e fc bd 72 ca 6d 3e 49 9e 43 3e
       0.03166188 -0.12316555 0.23221758 0.1910335
0001b0 99 c6 d6 3d d8 3d c2 bd e6 9f f5 3c 1b 05 b1 be
       0.10487098 -0.09484452 0.029983472 -0.34574208
0001c0 70 a2 87 bd 6f 04 86 3e b3 b4 ea bd 62 ed a2 3d
       -0.06622779 0.26175258 -0.11460247 0.079554334
0001d0 44 9c 22 3e 5a f7 2c be b5 71 cc 3d c2 a6 92 3d
       0.15879923 -0.16891232 0.099826254 0.07160713
0001e0 2a 65 b2 3d 48 01 8a 3e ee 8d 3c 3e ab 36 2b 3d
       0.08710702 0.26954103 0.18413517 0.041800182
0001f0 05 1c 54 bd cb 9f 1e be 44 60 1b be 15 22 ca bc
       -0.051784534 -0.15490644 -0.15173441 -0.024674455
000200 c5 6f 44 3e d8 ea 85 3d d5 22 97 3e be 93 8c 3d
       0.19183262 0.065389335 0.29518762 0.06864117
000210 54 92 10 3c 03 8e 82 3d 19 23 3b be 6c c9 dc bd
       0.00882395 0.06374743 -0.18275107 -0.10780606
000220 26 40 aa be 73 7c 41 bf de 0c 60 be 8e a7 15 bf
       -0.33252066 -0.7558052 -0.21879908 -0.58458793
000230 e9 6a f8 be 60 98 6e be 33 ae 55 be 9d 9c 47 3c
       -0.48519066 -0.23300314 -0.20867233 0.012183336
000240 39 7e 40 be a3 c3 0e be eb 18 96 bd 51 5f d9 3c
       -0.1879815 -0.13941817 -0.073289715 0.026534708
000250 5e 63 bb 3d a4 51 ce bd 50 15 80 3d 10 62 11 be
       0.09149812 -0.100741655 0.06254065 -0.14197564
000260 b7 69 42 be f1 83 e9 bd 97 47 53 be 98 d0 98 bd
       -0.1898564 -0.11402119 -0.20632778 -0.07461661
000270 3e 27 0a bd 3c 64 b2 3d 25 09 63 3d e9 58 d2 bd
       -0.03372883 0.087105244 0.055428643 -0.102708645
000280 7f dd 10 3c 71 7d 46 be eb 76 36 be d5 3d c3 bd
       0.008841871 -0.1938379 -0.17818801 -0.09533278
000290 f3 b8 0e 3d 71 bf a7 3c 77 ee 99 3e c7 28 49 3e
       0.03484435 0.020477029 0.30064747 0.19644462
0002a0 09 2b db bc e4 1a aa 3d b9 81 1c be b3 cc 92 3c
       -0.02675392 0.0830591 -0.1528386 0.017919874
0002b0 aa 61 42 3d 03 01 37 bc b8 55 20 3e 72 19 3a 3e
       0.04745642 -0.011169675 0.15657699 0.18173769
0002c0 0a 62 f3 3d 05 4d 44 bd d1 f9 c0 bc e3 d4 44 bd
       0.11883934 -0.047925014 -0.023556622 -0.048054587
0002d0 0e e0 95 3d ea 1c fc 3d 52 da c8 3c 02 61 a5 3c
       0.07318126 0.123102024 0.024518166 0.020187858
0002e0 e5 4a 0d 3e 53 c9 21 3e 80 a0 2a 3e 0d 7a 2f 3e
       0.13798101 0.15799455 0.16662788 0.17136402
0002f0 92 3c 22 bd e4 4b 80 3e 4a dc 17 3e 1d e6 4e 3e
       -0.039608546 0.250579 0.14830127 0.20204969
000300 85 79 c3 3d da 89 22 bd 13 f6 1b 3d cd a8 cb bc
       0.095446624 -0.039682247 0.03807647 -0.024860764
000310 1f 5d 28 3e a0 0a 80 3e 48 60 15 3d 01 95 32 bd
       0.16441773 0.25008106 0.036468774 -0.043599132
000320 d9 44 6c 3b 12 ce 12 be 2e 53 45 bd 78 f1 71 3d
       0.0036051779 -0.14336422 -0.04817503 0.059068173
000330 5a 79 45 bd bb c3 e3 3d 71 83 1b 3e 82 d0 45 3d
       -0.048211433 0.11121317 0.1518686 0.04829455
000340 9a c1 c1 3c bc 6c cc bd 43 0d f7 bc 83 1e d4 bd
       0.023651887 -0.09981677 -0.03015769 -0.10357382
000350 bb a9 27 be fa 3b a6 3c 0c e4 85 bd 81 7b 1e 3c
       -0.16373341 0.02029227 -0.06537637 0.009673
000360 c5 04 3a 3e 75 f1 7a bc dd ac 05 3d 52 37 7b bd
       0.18165882 -0.015316357 0.03263556 -0.061332054
000370 ac 4b a0 bd bb 1f 56 bd 30 e2 1e 3e d6 54 51 3d
       -0.07826933 -0.052276354 0.15515971 0.051106296
000380 aa 6d 76 bd b0 a2 37 3c 35 a8 05 3e 4b 5b 1f 3e
       -0.060163178 0.011208221 0.13052447 0.15562169
000390 12 2b 9c 3b b1 ec 2e 3e 97 86 88 3d 34 22 d5 be
       0.0047658766 0.17082478 0.06666296 -0.41627657
0003a0 53 fa 27 be b9 8a 13 3e 6d 60 5a bd ed 4b 00 bd
       -0.16404085 0.14408387 -0.053314615 -0.03132241
0003b0 83 5e 65 be 09 b8 b8 be ca bf 2e bd 1e 49 2a be
       -0.22399335 -0.36077908 -0.042663373 -0.16629454
0003c0 b0 5d 2b be da 52 b5 be d1 7b 0a be 54 d2 1e 3d
       -0.16734958 -0.35414773 -0.13523795 0.038774803
0003d0 3d 8d 4d bd 6f 82 3a be 88 ab 81 be 38 07 0c be
       -0.050183523 -0.18213819 -0.2532618 -0.13674629
0003e0 76 ff 22 be 6a b7 80 bb d6 89 45 be 95 82 2a be
       -0.15917763 -0.0039281147 -0.19290861 -0.16651376
0003f0 b2 45 99 3c c9 a9 1b bc c2 78 4d bd 71 29 f2 bd
       0.018709991 -0.009500929 -0.05016399 -0.118243106

layers.5.bias f4 [10]
000000 e6 ef 1a 3d 89 11 d4 3d ee 39 22 3d ec 98 05 39
       0.03782644 0.10354907 0.039606027 0.00012740836
000010 80 89 d0 3d 5d 8c cc 3d 55 b9 7a bc af d2 c4 3d
       0.10182476 0.0998771 -0.015302976 0.09610497
000020 55 b3 3f 3c b1 d8 52 bc
       0.011700471 -0.012869046

layers.7.weight f4 [10, 10, 3, 3]
000000 ac d8 2e be bf 92 6f be 38 76 af 3d df fc 6c be
       -0.17074841 -0.23395823 0.0856747 -0.23143338
000010 d0 34 06 bd c3 ad b0 3e 21 90 1a be 17 7c 32 be
       -0.03276521 0.3450757 -0.15094043 -0.17430149
000020 96 23 47 be 61 fa b6 3d d4 dc 1b 3e ec f3 16 be
       -0.19447169 0.08934475 0.15220958 -0.14741486
000030 da e5 99 3d 62 6a d8 bd a6 28 0c be 08 87 e1 bd
       0.07514544 -0.10567166 -0.13687381 -0.11012083
000040 84 07 b3 3c 81 fc 5d bd b6 88 3d be 76 06 e8 3c
       0.02185417 -0.054195885 -0.18509182 0.028323393
000050 46 54 d5 3d 6e 8f c0 3d 8c af 92 3e f0 99 0a 3e
       0.104164645 0.09402357 0.28649557 0.13535285
000060 1c c6 38 3c eb 82 c1 3e ee 50 67 3e 8e c6 fc bd
       0.011277702 0.37795195 0.22589466 -0.12342559
000070 7c 33 38 be e3 a9 07 be 7b ad 5d bd 1f 3b 1f be
       -0.1798839 -0.132484 -0.054120522 -0.15549897
000080 87 5e 6b bd c2 c8 2d be 6f 22 3c bc 6c 78 a4 bd
       -0.057463195 -0.16971114 -0.011482819 -0.08030781
000090 db fe c4 3a 7b df 33 3d 68 46 b0 3d 9d bc 71 bd
       0.0015029566 0.0439143 0.08607179 -0.059017766
0000a0 52 29 b6 3d 7e 60 f1 3d e1 ab 8a 3d aa da b4 bd
       0.088946 0.117859825 0.067710645 -0.08830769
0000b0 b5 10 4f 3d 7f 19 0d bc a2 ce 5f 3e c9 c0 2e 3e
       0.050553042 -0.008612036 0.21856168 0.17065729
0000c0 df 8d 28 be 7a 8f 00 be ef aa f3 3d 07 8f 36 bd
       -0.1646037 -0.12554732 0.11897837 -0.044569995
0000d0 97 dc c3 3c 7d 80 11 be bf be 58 be 36 e7 1f 3d
       0.023908896 -0.1420917 -0.21166514 0.03903886
0000e0 f9 37 17 3d 64 bd ba 3b e2 8c c0 3d 6b 7b 93 3d
       0.036918614 0.0056988467 0.09401871 0.072012745
0000f0 af e6 51 be 6c 7d c6 bc 87 ba 0b be 42 6b 2a 3e
       -0.20498155 -0.024229728 -0.13645373 0.16642478
000100 16 19 6f bd f6 ec 4a 3a 84 55 7f 3d a7 a5 75 3c
       -0.058373533 0.00077409984 0.062337413 0.014993108
000110 94 fd a1 3d ff 75 d2 bc 5d 12 b8 3d f6 92 bf bd
       0.07909694 -0.02569103 0.089878775 -0.093542024
000120 1d d2 71 3d 41 cf 14 3e e7 cb bd 3d 5c e1 9d 3d
       0.05903827 0.14532186 0.09267407 0.077089995
000130 02 15 8a 3d 71 85 4d 3d e4 01 57 bd d6 be 2f be
       0.06742288 0.050176088 -0.052492037 -0.17162642
000140 30 75 ab bd 06 44 7b bd 56 ba 5e be bb df 8f be
       -0.08371961 -0.06134417 -0.21750769 -0.2810038
000150 62 cf cf 3c 1a fe ba bd 70 8b 3a be 4b 3e 7b bd
       0.025367443 -0.09130497 -0.18217254 -0.061338704
000160 8c c0 44 bc 65 ef 6b 3d 4c 9e 84 bd 38 68 9d bd
       -0.012008797 0.05760135 -0.06475505 -0.07685894
000170 03 5a f6 bd 3c 7c 9e 3c 44 9b 1e 3d 89 c9 d7 bc
       -0.12028887 0.019346349 0.03872229 -0.026341217
000180 f9 60 1d be dc 33 c0 bd 90 ff 56 bd c2 dd 3d bd
       -0.15369023 -0.093848914 -0.052489817 -0.046354063
000190 ba 12 ae bc 07 e3 31 bd f9 58 cf bd 52 d8 75 3d
       -0.021249164 -0.0434294 -0.10124392 0.060020752
0001a0 ea c9 be 3d 54 8f d8 3d dc 4a 15 3e 3f 0c 0e 3e
       0.09315856 0.10574213 0.14579338 0.13871859
0001b0 7b db 1d bd 22 c0 c1 bd e5 e3 af 3d 06 e4 0f 3e
       -0.03853939 -0.094604746 0.08588389 0.14051828
0001c0 a1 5d 62 ba ac e1 46 bc 15 70 6e 3e 25 7b 9b 3d
       -0.00086351676 -0.012138765 0.23284943 0.07591847
0001d0 62 8b 5f 3d e3 3c 4f 3e 64 c7 ce bd 35 46 c1 be
       0.054576285 0.2023807 -0.100966245 -0.37748876
0001e0 6d 80 56 bc 58 22 fa bd 8a b0 c9 bd a3 87 17 bd
       -0.0130921425 -0.12213582 -0.09848125 -0.036994588
0001f0 a1 64 8c 3d 98 91 f2 bc c7 e7 fe bd a2 7a b0 bd
       0.06855131 -0.02961044 -0.12446552 -0.0861714
000200 47 04 02 3d c5 52 e3 bd 04 a0 6d bc f7 6b 17 3e
       0.03174236 -0.110997714 -0.014503483 0.14787279
000210 5d 9c 8c be 80 40 ba 3d ce 73 36 3c dd 2e 25 be
       -0.27463046 0.09094334 0.011136008 -0.16131158
000220 f0 a3 1a 3e 22 8c be bc ac f7 f1 bd 13 fd 08 3d
       0.151016 -0.02326018 -0.11814818 0.033444475
000230 b9 ac 71 bd 41 4d 8a bd 02 b3 a3 bb 5e 5f 43 bd
       -0.05900261 -0.06753016 -0.0049957046 -0.04769837
000240 ca 8f aa bd 4f fe b3 bd 8f 36 d8 b9 3f 7e 21 be
       -0.08328207 -0.0878874 -0.0004123938 -0.15770815
000250 25 9d 3f bc 28 24 0c bd a7 2c a3 bd e7 13 b6 bd
       -0.011695181 -0.03421417 -0.07967501 -0.08890515
000260 87 f9 83 3d e6 04 7e 3b 1b 7b 82 bb 9e 37 e3 3d
       0.06444078 0.0038760244 -0.0039819605 0.110945925
000270 fb 8a bc 3d 63 42 93 3d ad 59 b2 3b cc 5e 9e 3c
       0.09206196 0.07190397 0.005442819 0.019332312
000280 05 75 b4 3d 28 3b 29 bc 88 c8 bc bd 95 4f 64 bc
       0.08811382 -0.010329045 -0.09217936 -0.013934989
000290 73 97 b9 bd f8 5b 65 bd 72 0a 8c 3d e8 ec e6 bd
       -0.0906209 -0.05599591 0.0683793 -0.11275655
0002a0 87 27 33 be 4e 88 8a bd 02 39 af 3a 4e 0d 72 3d
       -0.17495547 -0.06764279 0.001336843 0.05909472
0002b0 eb 00 a1 3c d1 51 e6 bc 73 f0 d1 3d fe 70 c7 3d
       0.019653758 -0.028115185 0.1025094 0.097383484
0002c0 ec 6c 26 3d 67 3f 32 3e 9a a7 64 bd 2b dd 45 be
       0.04063122 0.17406999 -0.0558239 -0.1932265
0002d0 ba 33 2a 3d 26 39 81 be ab 04 0d be 0a 5b 58 bd
       0.041553237 -0.25238913 -0.13771312 -0.052821197
0002e0 ca f0 a9 be 0c 9d 54 be c0 a1 6b be 4c 57 53 bd
       -0.3319152 -0.20763034 -0.23010921 -0.051596925
0002f0 a4 58 2d bd 3d df 18 3e 10 c8 91 bd d8 e1 86 3c
       -0.042320862 0.14928909 -0.07118237 0.016465113
000300 7f 28 2d 3e 73 11 59 3d 39 05 ba 3d 3c 4b 27 3d
       0.1690998 0.052995156 0.090830274 0.040843233
000310 7c b2 43 3d 73 ea b7 3b da 64 15 be 21 d4 09 3e
       0.047777638 0.0056126653 -0.14589253 0.13459827
000320 51 54 27 be ce 0a 8d 3d 5c d6 e9 3d e7 a3 e9 3c
       -0.16340758 0.068868265 0.11417839 0.028520538
000330 aa e2 74 be 0d 2e 73 bd 22 25 00 3e 66 c2 87 3e
       -0.2391459 -0.05937009 0.12514165 0.26515502
000340 0d 92 51 be f0 22 cb be 58 a3 af 3d 38 3f e8 bd
       -0.2046587 -0.39675093 0.08576077 -0.11340183
000350 d0 be 15 3e 74 16 af be 1b a7 69 bd f2 1c a5 bd
       0.1462357 -0.34196818 -0.05704413 -0.080621615
000360 42 45 3f bc 46 2b 67 bc 02 31 c6 3d 37 c5 2c be
       -0.011674227 -0.014109438 0.09677316 -0.16872106
000370 0b ea 70 3c 9a f4 5d bd 29 a8 89 be 54 49 dd bd
       0.014704238 -0.05418835 -0.2688611 -0.10805002
000380 ac 8e ab bd d2 45 56 3c 2d 2f b0 3e a1 e0 b1 3d
       -0.08376822 0.01307817 0.34410992 0.08685423
000390 f7 48 f5 bd 2a e4 1e 3d b7 b5 2c bd 5a 93 70 be
       -0.119768076 0.038791813 -0.042165484 -0.2349371
0003a0 bf 6c a1 be f1 64 40 be 30 ff d1 bd 8a 1e 47 3d
       -0.3152828 -0.18788506 -0.10253751 0.04861311
0003b0 63 6f 2b be fc 85 7d bc cd d0 95 3c 6e bb 05 3d
       -0.1674171 -0.015473839 0.01828804 0.03264945
0003c0 5f b5 05 3e 40 ba cf 3d 91 bc 1f 3d 03 c1 bb bc
       0.13057469 0.10142946 0.03899819 -0.022919184
0003d0 68 f4 9b bd 70 da f1 3d b0 63 c2 3d bf b7 0c 3d
       -0.07614976 0.11809242 0.0949167 0.03435492
0003e0 8b 03 12 3e 28 62 d2 bc fe 1f 6c bd 73 1f f7 3d
       0.14259164 -0.02568157 -0.057647698 0.12066545
0003f0 8c aa 83 bd 6f 72 f1 3d 17 55 35 be 8b fd ef bd
       -0.064290136 0.117894046 -0.1770824 -0.11718281

layers.7.bias f4 [10]
000000 82 a3 be bd 43 d8 37 3d 19 1d d8 bc be 9d 97 bc
       -0.093085304 0.044883978 -0.026381062 -0.018507835
000010 a1 0e 2b be ac d0 72 bd 1b 4f 97 3d c4 8e fd 3a
       -0.16704799 -0.059281036 0.07388135 0.0019344916
000020 4d f7 81 3d 0d 66 00 3e
       0.06345997 0.1253893

layers.11.weight f4 [10, 490]
000000 83 a1 27 bb 4d 7f ab 3c 96 ec 48 3a 6d 00 4a bd
       -0.0025578446 0.020934725 0.00076646486 -0.049316812
000010 24 09 8b 3d 53 bd ae 3d e1 b7 6a 3d ed f5 80 bd
       0.06788853 0.085322045 0.057304267 -0.062969066
000020 44 97 5b bd 83 c7 e9 3a 54 96 2e 3d 52 0d 64 bd
       -0.053611055 0.0017835948 0.042623833 -0.055676766
000030 4d d4 cb 3c ab 7a 2e 3d 4c 8d 18 be 48 16 bf bd
       0.024881506 0.042597454 -0.1489765 -0.09330422
000040 9d 1c 34 3c a0 67 03 bd 21 3e 02 3d d0 7f 18 3d
       0.01099315 -0.032081246 0.031797532 0.037231266
000050 b6 7e 97 3c d3 77 9c 3d 5c c0 7c 3d d2 8e 21 3c
       0.018493038 0.07640042 0.061706886 0.009860711
000060 a7 ba 0a 3e ff 15 fc 3d e3 aa 5b 3d 43 64 8c 3d
       0.13547765 0.12308883 0.053629767 0.06855061
000070 0a 1e c8 3d a8 8c 51 3d 56 d8 d2 bc 07 0f b1 3d
       0.097713545 0.05115953 -0.025737923 0.08645444
000080 7d d1 c0 3d 8b fe 67 3d 17 3b 66 bc c9 22 41 3d
       0.09414957 0.056639235 -0.014052174 0.047152314
000090 3c c0 ad 3c aa 05 0c be 8a 5b 44 bd fa 31 69 bd
       0.021209829 -0.13674036 -0.04793886 -0.056932427
0000a0 d4 a3 26 3d 55 99 64 bd 8d 56 7f 3d 90 4e 82 be
       0.040683582 -0.05581029 0.0623384 -0.25450563
0000b0 b8 d5 3c be 07 34 34 be 0c b1 09 be de d3 d4 bb
       -0.18440902 -0.17597972 -0.13446444 -0.006494983
0000c0 d9 64 84 bd fe 4a fb 3b 8a 61 a7 ba e9 bd c5 bc
       -0.06464548 0.007668852 -0.0012770158 -0.024138408
0000d0 3d c6 98 3c a1 74 06 3d 02 2d a0 3d a5 e8 de 3d
       0.018649215 0.03282607 0.078210846 0.10884217
0000e0 fc da 00 3e 5f 19 7c 3d 6d 6b 1c 3d 47 54 4e 3d
       0.12583536 0.061547633 0.038188387 0.050373342
0000f0 42 a6 95 3d ab ea f0 bb 2e c6 8c 3d b5 7b 16 3e
       0.07307102 -0.0073521934 0.06873737 0.14695628
000100 16 0e 71 bc 3e af 86 3d 49 b4 a3 ba e6 ae 1d 3c
       -0.014712831 0.065763935 -0.0012489642 0.009624219
000110 13 8d 09 ba 86 a6 05 bd b0 cd e2 3c dd cd 75 3c
       -0.0005247157 -0.032629512 0.02768597 0.015002695
000120 7a a1 95 3c 33 ef a2 bc 79 d7 02 3d c5 b6 60 bd
       0.018265475 -0.01988945 0.031943772 -0.054861803
000130 38 40 6b bd b3 d5 a9 bd 8a 21 b2 bd bf 6d 58 3c
       -0.05743429 -0.08292713 -0.08697803 0.013209759
000140 7c 18 89 bd d7 84 6d 3c 91 1c 32 be 65 a5 ef bd
       -0.06694123 0.0144970035 -0.1739371 -0.117014684
000150 c3 0f 9e 3c 56 ad 5f bd d6 f0 99 bb 24 9b 1a bd
       0.019294625 -0.054608665 -0.0046978993 -0.03774561
000160 85 9c 1c bc 9e d7 07 bd cf ad 8b bd ae f2 37 bd
       -0.009558802 -0.033164613 -0.06820261 -0.04490917
000170 96 37 99 3c e7 db ba 3d b9 39 66 3c 92 74 0c 3d
       0.018703263 0.09123974 0.014051848 0.034290858
000180 28 22 ec 3c 78 ce 03 bd 73 21 2f 3d 85 be 17 be
       0.02882488 -0.032179326 0.04275651 -0.14818771
000190 a5 9d 1d 3d 07 df b9 3c bc d9 a7 3c 4f b9 dc 3d
       0.03848042 0.022689356 0.020489566 0.10777532
0001a0 64 c6 1c 3d 4a f6 2c 3e 1a e7 a7 bd a6 94 b0 3d
       0.038275138 0.16890827 -0.08198376 0.086221024
0001b0 a9 4c e0 3d 31 18 e2 3d c5 c9 93 bc f8 00 26 3e
       0.10952122 0.110397704 -0.018040547 0.16211307
0001c0 8f 3b 2a 3e 71 61 86 3d 9a 77 90 3d 13 44 e7 ba
       0.16624282 0.06561554 0.07054062 -0.0017644189
0001d0 3a 36 0b 3d 12 be 8c 3d ec ce 9b 3d 32 59 43 3d
       0.03398726 0.068721905 0.076078266 0.047692485
0001e0 e1 ca e8 3d 4b ed ee 3b 0b 51 de 3b ec f2 93 bc
       0.11366821 0.007291471 0.0067845634 -0.01806017
0001f0 03 53 16 bd b5 78 ae bd 11 68 8d 3c 01 bc db 3b
       -0.03670026 -0.08519117 0.017261537 0.0067057614
000200 43 c8 35 bc 2d 75 59 bd bb 0b 2a bd 15 08 29 bd
       -0.011095109 -0.053090263 -0.041515093 -0.041267473
000210 27 03 7d bd 78 d6 0b bd e1 fa 10 bd f5 28 9d 3c
       -0.061770584 -0.03414008 -0.035395507 0.019184569
000220 c9 2a 69 bc 65 0a 3c bd fd e9 83 bc f0 42 f0 bd
       -0.014231392 -0.04590835 -0.016102785 -0.11731517
000230 69 82 86 bd 29 99 d6 3b 45 c2 08 3d 50 12 85 3b
       -0.065678425 0.00654902 0.033388395 0.004061021
000240 c1 cd 9f bb 0f 84 33 bb 56 0f d0 bd 7c 24 25 bd
       -0.0048768227 -0.0027391945 -0.10159175 -0.040317997
000250 d7 2e 1f 3c 62 1b 24 3d 59 9d 91 3d e9 df 70 bd
       0.009715757 0.040065177 0.0711009 -0.058807287
000260 98 98 8b bd 70 6f 35 3b 25 fb 0a bd e7 1b be 3d
       -0.06816214 0.002768483 -0.033930916 0.09282666
000270 18 df b8 3d 11 bb 47 3d 24 3e d2 bd cd b8 b0 bd
       0.09026927 0.048762385 -0.10265759 -0.08628998
000280 3f 15 49 bc 8c 25 13 bd 06 6d 36 be 7c c6 95 3d
       -0.012273132 -0.03592448 -0.17815027 0.073132485
000290 55 10 4a bb 1b b5 15 be a1 96 8f bd bd f7 4d bc
       -0.0030832489 -0.14619868 -0.07011152 -0.012571272
0002a0 05 b3 c1 3d bb 3c 92 3d 2e 0b 78 bc 1f f7 d6 3d
       0.094579734 0.0714049 -0.015139384 0.10496353
0002b0 98 5f 9e 3a 6e 91 70 3d 59 25 19 3d 38 bf f8 3d
       0.0012082933 0.058732443 0.037389133 0.12145847
0002c0 cb e8 af 3d d6 c1 c3 bd ac 4c c3 bd 47 cb a0 3c
       0.085893236 -0.09558456 -0.095361084 0.01962818
0002d0 0b 30 7b 3d cd 93 98 3d c0 d8 d6 3d 3b 2b a0 bd
       0.061325114 0.07450066 0.104905605 -0.078207456
0002e0 28 48 f9 bc fb e8 09 bd 65 4e 2f 3d 1b df ae 3d
       -0.030429915 -0.033669453 0.042799372 0.08538648
0002f0 3f 35 70 3d b8 fb 05 3e 2c f7 3c be b2 55 12 bd
       0.05864453 0.13084304 -0.18453664 -0.035726257
000300 61 4a c6 bd c8 20 c1 3d da b8 db 3d b9 90 14 3d
       -0.096821554 0.09430081 0.10728617 0.03627083
000310 0a fc 18 bc e0 8c 44 be 3e ba 6d bc 47 af 08 3c
       -0.009337435 -0.19194365 -0.014509736 0.008342571
000320 f7 3a 2c 3e 05 75 aa 3d 6e fd a3 3c 44 a6 97 bd
       0.16819368 0.08323101 0.020018306 -0.074047595
000330 44 bf af bd 07 5c 1b be 39 66 2e be 91 f0 5d 3e
       -0.08581403 -0.15171824 -0.17031182 0.216738
000340 89 47 40 3b d8 f5 94 3d b6 6c 4d 3c 85 b8 58 be
       0.0029339513 0.072734535 0.012538126 -0.21164139
000350 f9 0d 0c be 95 5c a3 bd c2 68 99 3e d9 c1 56 3c
       -0.13677205 -0.07976643 0.29962736 0.01310774
000360 e6 02 d1 bc 2f 42 39 3d 5c 19 2a bb 56 52 03 be
       -0.025514077 0.045229133 -0.0025955057 -0.12824377
000370 da 3b 4e bd 57 21 92 3e 1f 0a ee 3d 3e e5 05 bd
       -0.050350048 0.2854106 0.11623024 -0.032689326
000380 ec c7 79 3d 7b 06 a8 3d 6c e7 1f be cc 47 4e be
       0.060981676 0.08204361 -0.15615624 -0.20144576
000390 73 94 47 3e 85 a8 25 3d 0d d9 18 bc 27 ae 03 bc
       0.19490223 0.040443916 -0.009329093 -0.008037127
0003a0 6c 14 f3 3c b0 71 22 be 87 43 9e be b2 27 40 3e
       0.029672824 -0.15863681 -0.30910894 0.18765143
0003b0 ca 36 4b be af ac 00 bd d6 77 a3 3d 22 42 d7 3d
       -0.19845119 -0.031414684 0.07981841 0.10510661
0003c0 4b f8 1d 3e 1a 78 ea bd f1 24 13 3e d3 18 c7 bd
       0.15426748 -0.11448689 0.14369561 -0.09721532
0003d0 5f c8 0c 3d 7b 7b fc bd f7 b0 13 bc bc 79 7c bd
       0.034370776 -0.123282395 -0.00901436 -0.061639532
0003e0 7c e1 8f 3c c2 f5 8b 3c 1d ca d3 bc 01 48 66 3b
       0.017563574 0.01708496 -0.025853211 0.0035138133
0003f0 ee a6 7a 3d 52 e1 8d bc a4 87 42 3c 93 56 a4 3c
       0.061194353 -0.017319355 0.01187316 0.020060813

layers.11.bias f4 [10]
000000 d9 96 31 3d 92 9d 13 bd a5 d4 7c 3d bc ab 2b 3d
       0.04335675 -0.036038943 0.06172623 0.041911826
000010 89 f6 b0 bd 5f e2 01 bd 29 68 30 3d 82 d1 e7 3c
       -0.08640773 -0.031710025 0.043068085 0.028298143
000020 d6 4a b8 3c d7 af 68 bc
       0.022496622 -0.01420208
