modelFashionMNIST.pth (torch, 34223 bytes, 10 tensors)

layers.0.weight f4 [10, 1, 3, 3]
0	0x3d8d8ff0	0.069122195
1	0xbd7c82f6	-0.06164833
2	0x3e821999	0.25410154
3	0xbeb2e5ea	-0.34941036
4	0xbf8b29d7	-1.0872144
5	0x3e1ff00c	0.15618914
6	0xbf5d1ab2	-0.8636886
7	0xbf917f88	-1.1367044
8	0xbec39f07	-0.38207266
9	0x3f17a509	0.592362
10	0x3eb5407b	0.35400757
11	0xbe30d3f5	-0.17268355
12	0xbe85fe8f	-0.26170775
13	0x3ee7331d	0.45156184
14	0xbed76521	-0.42069343
15	0xbf0b87d0	-0.5450411
16	0x3e3d3341	0.18476583
17	0xbe2d0fdb	-0.1690058
18	0xbef0ac75	-0.47006574
19	0xbf18c404	-0.59674096
20	0x3ed8761d	0.42277613
21	0x3d095618	0.03352937
22	0xbe696106	-0.22790918
23	0x3f6a7944	0.91591287
24	0xbec5070b	-0.38481936
25	0x3c61ec2d	0.013789219
26	0x3ee98722	0.4561091
27	0x3e0aa9b3	0.13541298
28	0xbe4ba9d1	-0.19888999
29	0x3e94a2a3	0.29030332
30	0xbe6431ea	-0.22284666
31	0x3e72591f	0.2366681
32	0xbe0f8135	-0.14014132
33	0x3f2e6a3c	0.6813085
34	0xbc7b82a3	-0.01535097
35	0xbd91ea1c	-0.07124731
36	0xbf404e1f	-0.75119203
37	0x3f11993e	0.56874454
38	0x3ee72a74	0.45149577
39	0xbf838e9d	-1.0277897
40	0x3f243942	0.6414987
41	0x3e773b84	0.24143797
42	0xbec69809	-0.3878787
43	0x3db0025b	0.08594199
44	0x3ef55ed9	0.47923926
45	0x3ee8b42d	0.45449963
46	0x3d3d298c	0.0461822
47	0xbf1cc253	-0.61234015
48	0xbe8132c2	-0.25234038
49	0xbfcdc26c	-1.6074958
50	0xbfad71c2	-1.3550341
51	0xbf08b7c6	-0.53405416
52	0xbff783cd	-1.9337097
53	0xbfa40c6c	-1.2816291
54	0x3e8eb92c	0.2787565
55	0x3ed301e9	0.41212395
56	0x3d0d9301	0.034564022
57	0xbdfe69f1	-0.124225505
58	0x3ed46644	0.41484272
59	0xbe37a61e	-0.17934462
60	0xbeecd979	-0.46259668
61	0xbecebcdd	-0.40378466
62	0x3e9cb141	0.30603984
63	0x3d1b73dd	0.037952293
64	0x3ccdc2c1	0.02511728
65	0xbf15b1fc	-0.5847471
66	0x3c62b63c	0.013837393
67	0x3ea868c5	0.32892433
68	0x3d56d4f6	0.05244919
69	0x3d14c241	0.036318067
70	0x3e813015	0.25231996
71	0x3e38cac2	0.18046096
72	0xbd92e5dc	-0.071727484
73	0xbf321226	-0.6955894
74	0xbf2611d5	-0.6487096
75	0xbe865817	-0.26239082
76	0x3e0d48b1	0.13797261
77	0xbcf0d6e4	-0.029399343
78	0x3ebe72bc	0.3719691
79	0x3daf0e69	0.085476704
80	0x3f11ae2f	0.5690641
81	0x3f03acc8	0.5143552
82	0x3e02494e	0.12723276
83	0xbecb6009	-0.39721707
84	0xbec4f9a3	-0.38471708
85	0xbf88dc1e	-1.0692174
86	0x3ae554e5	0.0017496614
87	0x3e9d68a1	0.30743888
88	0xbc959b11	-0.018262418
89	0xbd5bf4a4	-0.053700104

layers.0.bias f4 [10]
0	0x3e66a2b6	0.22523007
1	0xbda5c2c5	-0.0809379
2	0xbe0bbb8c	-0.13645762
3	0xbe51af0a	-0.20476928
4	0x3d00246b	0.03128473
5	0x3e1ae55e	0.15126559
6	0x3d0a4651	0.033758465
7	0xbd40707e	-0.04698228
8	0x3e88260b	0.26591524
9	0x3dcdffa0	0.10058522

layers.2.weight f4 [10, 10, 3, 3]
0	0xbe97341e	-0.2953195
1	0xbec2b03e	-0.38025087
2	0x3c950d5b	0.018194845
3	0xbe9d93d7	-0.30776855
4	0xbe0e0eeb	-0.13872878
5	0xbe0c25f4	-0.13686353
6	0xbddc8ef7	-0.10769456
7	0xbdb0b411	-0.08628095
8	0xbba18eeb	-0.004930367
9	0xbe22b4b8	-0.15889251
10	0xbea1c420	-0.31594944
11	0x3daa43c0	0.083137035
12	0xbe63ed61	-0.22258522
13	0xbec4ab40	-0.38411903
14	0xbdf43728	-0.11924583
15	0x3da39fd7	0.079894714
16	0xbdd75d35	-0.10515825
17	0x3d2f03d1	0.04272825
18	0x3e723667	0.23653565
19	0xbedb9d6f	-0.4289355
20	0xbe856e44	-0.26060688
21	0xbe673036	-0.22576985
22	0xbea459b9	-0.32099703
23	0xbee1798d	-0.44038048
24	0xbec1a2a2	-0.3781939
25	0xbebfd4ed	-0.37467137
26	0xbf090dde	-0.53536785
27	0x3e920ff2	0.2852779
28	0x3e97bcd1	0.29636243
29	0xbd87a72b	-0.06623682
30	0x3ee07a43	0.43843278
31	0x3e891e92	0.26781136
32	0xbe40bc42	-0.18821815
33	0x3d914a99	0.070943065
34	0xbab49ce9	-0.0013779673
35	0xbda7daa8	-0.08196002
36	0x3d3f5ff8	0.046722382
37	0xbcd43507	-0.025904192
38	0xbe14b753	-0.14523058
39	0x3e6c210b	0.2305948
40	0xbf00ecc0	-0.5036125
41	0xbe9cbf40	-0.30614662
42	0xbe9b54ca	-0.30338126
43	0xbf23ed64	-0.64034104
44	0xbd9b703e	-0.07589768
45	0x3de303a8	0.11084682
46	0xbe5d726b	-0.21625678
47	0xbef9d8cb	-0.48798212
48	0xbe3a1276	-0.18171105
49	0xbd2ed3b3	-0.04268236
50	0xbf07f769	-0.5311189
51	0xbe3d33af	-0.18476747
52	0xbe4cf372	-0.20014742
53	0xbe8070b8	-0.25085998
54	0x3e7074ec	0.23482102
55	0xbd1e80e3	-0.038697135
56	0x3e6b573c	0.22982496
57	0x3cad29b9	0.021138059
58	0x3de73e95	0.112912335
59	0x3d015ff2	0.03158564
60	0x3e612a66	0.2198883
61	0xbdcfcfdd	-0.10147069
62	0x3dae2440	0.08503008
63	0x3e10475c	0.14089721
64	0x3db6dbe1	0.08928657
65	0x3d9505b5	0.07276479
66	0x3ea4c064	0.32178032
67	0x3e6a5c0c	0.22886676
68	0x3e744ef0	0.23858237
69	0x3e2af758	0.16695917
70	0xbe0a60d3	-0.13513498
71	0xbe5a2537	-0.21303259
72	0x3d56ed6d	0.05247252
73	0xbd697849	-0.05699948
74	0xbe2e55ec	-0.17024964
75	0x3e5f6db8	0.21819198
76	0x3e477f5c	0.19482177
77	0xbe55a037	-0.20861898
78	0xbaf0ba4e	-0.001836607
79	0xbe1c7e26	-0.15282497
80	0xbe2e3da7	-0.17015706
81	0xbf052ab5	-0.5201829
82	0xbeb6123b	-0.35560784
83	0xbe0d136b	-0.13776939
84	0xbd9ebb05	-0.07750515
85	0xbd6091f9	-0.05482671
86	0xbd7e34b7	-0.06206199
87	0xbe9dd77e	-0.3082847
88	0xbe7c37ef	-0.24630712
89	0xbed2439a	-0.410672
90	0x3e37bab4	0.17942315
91	0xbea81aca	-0.32832938
92	0xbe011b34	-0.12608033
93	0xbe034cbf	-0.12822245
94	0xbe2f12a4	-0.17096955
95	0xbd9b8f1e	-0.07595657
96	0xbd3e6656	-0.046484314
97	0xbcc4cc29	-0.024023132
98	0x3e918904	0.28424847
99	0xbe27ae76	-0.16375145
100	0x3d8ef026	0.069793984
101	0x3edb7317	0.42861244
102	0x3e3f36c7	0.1867324
103	0xbe07be7c	-0.13256258
104	0xbe63661c	-0.2220692
105	0x3e92bb7f	0.28658673
106	0xbd5bb42d	-0.053638626
107	0xbe7034e7	-0.2345768
108	0x3da5bdce	0.08092843
109	0xbe5cd2f1	-0.21564843
110	0xbd41209b	-0.047150236
111	0x3e073554	0.13203937
112	0xbda68a1b	-0.0813181
113	0xbd8616cb	-0.06547316
114	0x3df6cb76	0.12050526
115	0x3e276231	0.16346051
116	0x3e0edf8a	0.13952461
117	0x3f41f2b1	0.7576094
118	0x3df7bb75	0.120963015
119	0x3e618de4	0.22026783
120	0x3e9559a3	0.2916995
121	0x3de22d91	0.11043847
122	0x3ea56ee6	0.3231117
123	0x3d9c3511	0.07627309
124	0x3ea128ea	0.31476527
125	0x3d4d2b70	0.050090253
126	0xbb4a37ea	-0.0030856081
127	0xbebb16fb	-0.3654097
128	0xbdbb24aa	-0.091378525
129	0x3d15eb74	0.0366015
130	0xbeb57e33	-0.35447845
131	0x3da6b9d8	0.08140916
132	0x3db6fb09	0.089346
133	0xbdb812a8	-0.089879334
134	0xbd3a2ee8	-0.04545489
135	0xbdadda83	-0.084889434
136	0xbc9d6ebb	-0.01921784
137	0x3e5268ff	0.20547865
138	0xbec6a3ed	-0.3879694
139	0x3e004c2a	0.12529054
140	0x3d8e485c	0.06947395
141	0xbe8526d7	-0.26006195
142	0x3ea80008	0.32812524
143	0x3efb06a2	0.49028498
144	0xbcf5e4bd	-0.030016297
145	0x3d8e513c	0.06949088
146	0x3e4d498f	0.20047592
147	0x3e893bda	0.26803476
148	0xbc65876a	-0.014009336
149	0xbe22605d	-0.15857072
150	0x3e28de9a	0.16491166
151	0x3dedf1e4	0.116184026
152	0xbda38623	-0.07984569
153	0x3e457e6d	0.19286509
154	0x3dfaee04	0.12252429
155	0x3e0ab7df	0.13546704
156	0x3e44f91b	0.19235651
157	0x3e481c64	0.1954208
158	0x3e791af5	0.2432669
159	0x3e3d14f0	0.18465018
160	0x3da7f5e2	0.08201195
161	0x3e7f1877	0.24911676
162	0x3e1fc2e8	0.15601695
163	0xbcad672e	-0.021167364
164	0xbe47b3fb	-0.19502251
165	0xbe8e219a	-0.2776001
166	0xbe7f2e48	-0.24919999
167	0xbd204482	-0.039127834
168	0xbe5e3475	-0.21699698
169	0x3e21c481	0.15797617
170	0xbe4fbab2	-0.20286062
171	0xbeaff6e2	-0.34368044
172	0xbe9afa87	-0.30269262
173	0xbd837646	-0.06419043
174	0x3db22eec	0.08700356
175	0x3e89fe0f	0.26951644
176	0x3cf51692	0.029917989
177	0xbdcdad85	-0.10042862
178	0xbe31de84	-0.17370039
179	0xbdea5fe5	-0.11444072
180	0xbf21bbaa	-0.6317698
181	0x3d291afe	0.041285507
182	0x3e188187	0.14893161
183	0xbe71a0d3	-0.23596506
184	0x3de7b6e7	0.11314183
185	0x3d1fe139	0.03903315
186	0x3e7d310a	0.24725738
187	0xbb82d8b4	-0.003993118
188	0xbe907efa	-0.28221875
189	0xbf093c90	-0.53608036
190	0xbe2f5a0c	-0.17124194
191	0xbb812d4a	-0.0039421665
192	0x3e18978c	0.1490156
193	0x3df316cc	0.118695825
194	0xbec370f8	-0.38172126
195	0xbe195d42	-0.14976981
196	0x3d9c5467	0.07633286
197	0xbe437313	-0.19086866
198	0xbe9d0f4a	-0.30675727
199	0xbe8182ba	-0.2529505
200	0xbe7b8bff	-0.24565123
201	0xbe82c9f7	-0.25544712
202	0xbe6038c6	-0.21896657
203	0xbd43ce10	-0.04780394
204	0xbd11d1ae	-0.035600357
205	0x3e3e5067	0.18585359
206	0xbca4316a	-0.020043094
207	0x3e73f2c6	0.2382308
208	0x3e9c170f	0.30486342
209	0xbbb7e228	-0.0056116767
210	0xbf187ac7	-0.59562343
211	0xbeff6dcc	-0.49888456
212	0x3de51de7	0.11187344
213	0xbe08573d	-0.13314529
214	0xbe861127	-0.2618496
215	0xbe60fe98	-0.2197212
216	0xbd8a7e6e	-0.06762396
217	0x3e08ce89	0.13360037
218	0xb9e10e3b	-0.00042925947
219	0xbeda570a	-0.4264453
220	0xbef73bf2	-0.48287922
221	0xbdbf2973	-0.09334078
222	0xbccdb6c6	-0.025111567
223	0x3e80be17	0.25145027
224	0xbe03568f	-0.12825988
225	0xbcd76ade	-0.026296075
226	0x3e9c7202	0.3055573
227	0x3ef12a25	0.47102466
228	0x3f3d9083	0.7404863
229	0x3ee5e6b1	0.44902566
230	0x3dafb2fb	0.0857906
231	0x3d7c1a18	0.061548322
232	0x3b9e4a22	0.0048306147
233	0x3d956630	0.07294881
234	0xbe3db40d	-0.18525715
235	0x3e8972cf	0.26845405
236	0x3ef6ee8a	0.48228866
237	0x3e35b066	0.17743072
238	0xbe64dadb	-0.22349112
239	0xbe6657b9	-0.22494401
240	0x3daf7868	0.085678875
241	0x3e0d02e2	0.13770631
242	0xbd59d72a	-0.053183712
243	0xbe6e8923	-0.23294501
244	0xbf098984	-0.5372546
245	0xbe334d69	-0.17509998
246	0x3cc2140c	0.0236912
247	0xbd9a59c4	-0.07536653
248	0xbec09789	-0.37615612
249	0xbdc56a7c	-0.09639451
250	0x3c689770	0.014196262
251	0x3d94351c	0.07236692
252	0xbea03b60	-0.312953
253	0xbf18d9f5	-0.59707576
254	0xbf223b91	-0.6337214
255	0xbdfc2568	-0.12311822

layers.2.bias f4 [10]
0	0x3e75f4bc	0.2401914
1	0xbde11e51	-0.109921105
2	0x3d1e5c5b	0.038662296
3	0x3deca814	0.11555496
4	0xbc409b4a	-0.011755774
5	0x3e1a301a	0.15057412
6	0xbd22cf36	-0.039748393
7	0x3da2b861	0.07945324
8	0xbe610af0	-0.21976829
9	0xbc10249c	-0.008797791

layers.5.weight f4 [10, 10, 3, 3]
0	0x3dfa955f	0.122355215
1	0xbb29551b	-0.002583808
2	0xbe1f73c5	-0.15571506
3	0x3ecd62f4	0.40114558
4	0x3eb62737	0.35576794
5	0x3d97dbaf	0.07414948
6	0x3e39ca9c	0.18143696
7	0x38f92e96	0.000118819225
8	0xbea08b92	-0.31356484
9	0x3dd0fea6	0.1020482
10	0xbd596e47	-0.053083684
11	0xbbdea757	-0.006794851
12	0x3e6a09d2	0.22855309
13	0x3e0d61b5	0.13806804
14	0xbdbf3623	-0.09336498
15	0x3d872a37	0.06599849
16	0xbc227d13	-0.009917515
17	0xbe88cad2	-0.2671724
18	0x3ea6d1f8	0.32582068
19	0x3e2ead58	0.17058313
20	0x3d12a23c	0.03579925
21	0xbf02b840	-0.51062393
22	0xbe6533df	-0.22383069
23	0x3d562ab0	0.052286804
24	0x3e905b6a	0.28194743
25	0x3e42a682	0.1900883
26	0xbe530231	-0.20606305
27	0xbe411412	-0.18855312
28	0xbd8acf02	-0.06777765
29	0xbe8c6c4a	-0.27426368
30	0xbca4de65	-0.020125577
31	0x3ecb0a82	0.39656454
32	0xbca8e11c	-0.020615153
33	0x3eaf2ba4	0.34212983
34	0x3e3f5f02	0.18688586
35	0xbd53a2b5	-0.05166884
36	0x3e153578	0.14571178
37	0xbe2e6006	-0.17028818
38	0x3e9386cc	0.2881378
39	0xbee7647d	-0.45193854
40	0xbec9a8af	-0.39386508
41	0x3e45b896	0.19308695
42	0xbedc1f39	-0.4299257
43	0xbed69990	-0.41914034
44	0x3d87e931	0.066362746
45	0x3d7b495d	0.06134926
46	0xbcfa0217	-0.030518575
47	0xbd740763	-0.059577357
48	0x3eaffd18	0.34372783
49	0x3db9bb99	0.090689845
50	0x3d2a5a91	0.041590277
51	0xbe032f2d	-0.12810965
52	0xbe589ee1	-0.21154357
53	0xbe845302	-0.2584458
54	0x3e8a2a54	0.2698542
55	0x3e190425	0.14942987
56	0x3e28f755	0.165006
57	0xbec17ec0	-0.37792015
58	0xbed437ff	-0.41448972
59	0xbcbc690f	-0.022999315
60	0xbe9ce18c	-0.3064083
61	0x3cabc8e6	0.02096982
62	0x3d1288e9	0.0357751
63	0xbda385ea	-0.079845265
64	0xbd4bda3b	-0.049768668
65	0xbea7a182	-0.32740408
66	0xbf255fb0	-0.6459913
67	0xbf87489c	-1.0569034
68	0xbf2e692b	-0.68129224
69	0xbdca1173	-0.098666094
70	0xbf72e653	-0.94882697
71	0xbeef2207	-0.46705648
72	0xbe1f02dc	-0.15528435
73	0xbde60242	-0.112308994
74	0x3e4f7bd2	0.20262077
75	0xbef0172c	-0.4689268
76	0xbf17d47e	-0.5930861
77	0xbe705e69	-0.23473515
78	0xbe7075c4	-0.23482424
79	0xbe6fe242	-0.23426154
80	0xbe30a561	-0.17250587
81	0xbed53d3b	-0.41648278
82	0xbe92f439	-0.28701952
83	0x3deb0f73	0.11477556
84	0xbf0694ab	-0.525706
85	0xbf025dc2	-0.50924313
86	0x3e9a37d1	0.3012071
87	0x3e95127b	0.29115662
88	0xbdb81712	-0.08988775
89	0x3d4316ca	0.047629155
90	0x3e4aa1d6	0.19788298
91	0xbe3cb1e1	-0.1842723
92	0x3e8279fa	0.25483686
93	0xbd6e0f4c	-0.058120057
94	0xbe3c2b0c	-0.18375796
95	0xbdeceb4d	-0.115683176
96	0x3e5af4d7	0.21382461
97	0xbe927734	-0.2860657
98	0x3d55ac14	0.05216606
99	0xbe03245d	-0.1280684
100	0xbe14e863	-0.14541773
101	0x3e9ee378	0.3103292
102	0xbe3fe715	-0.18740495
103	0xbe9bcbd0	-0.30428934
104	0xbd21b695	-0.039480764
105	0x3d2fac7a	0.042889096
106	0xbf1e8fee	-0.6193837
107	0xbeb07841	-0.34466746
108	0x3ef23494	0.4730574
109	0xbcdf7e12	-0.027281795
110	0xbdd8b6bc	-0.10581729
111	0x3decbc67	0.115593724
112	0xbe681b7b	-0.22666733
113	0xbd3fcf55	-0.046828587
114	0x3d228029	0.039673004
115	0x3e6a8ddd	0.22905679
116	0xbdec5a48	-0.11540657
117	0xbd5fb0ef	-0.054612096
118	0xbe39c5f8	-0.18141925
119	0x3e89ea30	0.26936483
120	0x3ce49401	0.027902605
121	0xbebd4ed0	-0.36974192
122	0xbeb2b3aa	-0.34902698
123	0x3e199d79	0.15001477
124	0xbe165095	-0.14679177
125	0x3db2b6a1	0.0872624
126	0xbb38d6df	-0.0028204245
127	0xbde05de3	-0.109554075
128	0xbc7a5ada	-0.01528045
129	0xbcc8f0dc	-0.024528913
130	0xbe1c62bb	-0.15272038
131	0x3eb21bf0	0.3478694
132	0x3a955566	0.0011393249
133	0x3d5e07be	0.054206602
134	0xbc7d513b	-0.015461261
135	0xbf169c7b	-0.5883252
136	0xbe395f56	-0.18102774
137	0x3e616749	0.22012056
138	0xbe72808b	-0.23681848
139	0xbea396c2	-0.31950957
140	0xbe3ca962	-0.1842399
141	0x3e437f08	0.19091427
142	0xbf3551f0	-0.7082815
143	0x3d476a67	0.048685458
144	0x3ebfa2ce	0.37428898
145	0xbd96ae8d	-0.07357512
146	0xbe528e7e	-0.20562169
147	0x3d1de57a	0.038548924
148	0xbe45033c	-0.19239515
149	0x3ec45d17	0.38352272
150	0xbdbc98a6	-0.09208803
151	0x3c9e787f	0.019344566
152	0x3e5b7a4c	0.21433371
153	0x3e3128bb	0.17300694
154	0x3e3a616d	0.18201227
155	0xbd23eb90	-0.04001957
156	0xbcfd5158	-0.030922577
157	0xbe024518	-0.1272167
158	0x3e43e57b	0.19130509
159	0x3db4ef6b	0.08834728
160	0xbc00b0e6	-0.007854676
161	0xbee830d3	-0.4534975
162	0x3e8b51e6	0.2721092
163	0x3eb39cc5	0.35080543
164	0x3e10521c	0.14093822
165	0xbce6bde5	-0.02816672
166	0x3dbf6000	0.093444824
167	0x3e61f2bd	0.22065254
168	0x3d94baab	0.072621666
169	0xbccf6f14	-0.02532152
170	0xbe81cd7a	-0.2535208
171	0x3d0c4af9	0.034251187
172	0x3d3fe11d	0.046845544
173	0x3e82824a	0.25490028
174	0x3d537166	0.051621817
175	0xbe831934	-0.25605166
176	0xbe85d0cb	-0.2613586
177	0x3e3ae315	0.18250687
178	0xbdfe97c5	-0.124312915
179	0xbf1130fc	-0.5671537
180	0xbe1445fb	-0.1447982
181	0xbe67d490	-0.2263968
182	0xbd8af026	-0.06784086
183	0xbe860c39	-0.261812
184	0xbf20ce1f	-0.62814516
185	0x3e4d33f2	0.20039347
186	0x3ed51410	0.4161687
187	0xbe3346b5	-0.17507441
188	0x3e1ac653	0.15114717
189	0xbe794e61	-0.24346305
190	0xbe4b6f0a	-0.19866577
191	0xbe870a03	-0.26374826
192	0x3d7d4a1b	0.06183825
193	0xbd201c96	-0.03908976
194	0x3bd56a4c	0.0065129157
195	0x3e336f8e	0.17523023
196	0xbe2f829a	-0.17139664
197	0x3e2c75b6	0.16841778
198	0xbe44e867	-0.1922928
199	0x3ee4ec20	0.447114
200	0x3e85b042	0.26111037
201	0x3c3363cf	0.010949089
202	0x3ec44239	0.38331774
203	0xbe795a55	-0.24350865
204	0xbda2bc40	-0.07946062
205	0xbe51edff	-0.20500945
206	0x3de631a4	0.11239937
207	0xbe82eaad	-0.25569668
208	0xbf2c448d	-0.672921
209	0x3d471de3	0.048612487
210	0xbe6381cf	-0.22217487
211	0xbf37993b	-0.71718186
212	0x3f0eedd2	0.55831635
213	0x3e41e2a9	0.1893412
214	0x3da8a04f	0.082337014
215	0x3e547428	0.20747435
216	0xbe8452ca	-0.25844413
217	0x3e5db931	0.21652676
218	0xbe41a811	-0.18911768
219	0xbd027a0e	-0.03185468
220	0x3eee2c54	0.46518195
221	0xbf16c0eb	-0.5888812
222	0x3df89b3c	0.121389836
223	0x3e2a593d	0.16635604
224	0xbe10e7dd	-0.14150949
225	0xbf1b24c2	-0.6060296
226	0xbf2e11e2	-0.67996037
227	0xbe02e0c3	-0.12781052
228	0xbf20ab3d	-0.6276129
229	0xbedb7059	-0.42859152
230	0x3e266b3f	0.16251849
231	0xbd7700aa	-0.060303368
232	0xbb8f928f	-0.004381485
233	0x3e5c5491	0.21516635
234	0xbeb35989	-0.35029247
235	0x3bb8c9c0	0.005639285
236	0x3e8972a3	0.26845273
237	0x3bca85bf	0.0061804946
238	0x3f234fdd	0.63793737
239	0x3d97d9cf	0.074145906
240	0xbe3cbf31	-0.18432309
241	0x3e0cf382	0.13764766
242	0xbe05ed04	-0.13078696
243	0xbdd5ef93	-0.10446086
244	0x3c681053	0.014164048
245	0x3db52289	0.08844478
246	0x3cfd5ed4	0.030929007
247	0x3dd9b638	0.106304586
248	0xbe2065fe	-0.15663907
249	0xbe0cdcab	-0.13756053
250	0x3e75d00a	0.24005142
251	0x3e099c6b	0.13438575
252	0xbe8c45c8	-0.2739699
253	0x3e6f9b25	0.23399027
254	0x3e988fde	0.29797262
255	0x3d7bb51b	0.061452013

layers.5.bias f4 [10]
0	0x3ec3b623	0.38224897
1	0x3d2b37eb	0.041801374
2	0x3e294ef4	0.16534024
3	0x3dc62e28	0.09676772
4	0x3eb8ecc2	0.36118132
5	0xbe4cea35	-0.20011218
6	0xbd493ded	-0.049131323
7	0xbdd66843	-0.10469105
8	0x3d36a87b	0.04459427
9	0x3e9203af	0.28518435

layers.7.weight f4 [10, 10, 3, 3]
0	0x3c83980a	0.016063709
1	0xbea292f2	-0.31752735
2	0xbc0dc849	-0.008653709
3	0x3cbad78a	0.022807855
4	0x3e394eed	0.18096514
5	0x3ee5f783	0.449154
6	0x3ecfc99a	0.40583497
7	0x3e693118	0.22772634
8	0x3da9c778	0.08289999
9	0xbea5a86e	-0.32355064
10	0xbe6395c9	-0.22225107
11	0xbd026ece	-0.031843953
12	0xbe591bbc	-0.21201986
13	0x3ec0af22	0.37633616
14	0x3e162ab0	0.14664721
15	0x3df97b0f	0.12181675
16	0x3ea2fb6a	0.3183244
17	0xbf867e1f	-1.0507239
18	0x3d87c0ef	0.06628596
19	0xbeb2ef95	-0.34948412
20	0xbe68599d	-0.22690435
21	0x3e4ccf11	0.20000865
22	0xbe2033ae	-0.15644714
23	0x3d9bbdec	0.07604584
24	0xbe12f6fd	-0.14352031
25	0x3eb175b0	0.346601
26	0x3d8a8e6a	0.067654446
27	0x3ce8818d	0.028382087
28	0xbe909f3c	-0.28246486
29	0xbe1ae095	-0.15124734
30	0x3e35a650	0.17739224
31	0x3ddcd8cf	0.107835405
32	0xbcd739ad	-0.02627262
33	0x3ea3d2d4	0.31996787
34	0x3dfe3fb9	0.12414498
35	0x3de7de5d	0.11321709
36	0x3e460e3b	0.19341366
37	0xbd7bd9e8	-0.06148711
38	0x3d862604	0.0655022
39	0x3e0a27c5	0.13491733
40	0xbd5c937b	-0.053851586
41	0xbdaaffdf	-0.08349585
42	0xbd9a7b6a	-0.075430706
43	0x3e9d003b	0.30664238
44	0x3dd8c3e8	0.10584241
45	0x3d08cbed	0.033397604
46	0xbd15aa50	-0.036539376
47	0x3e82c30e	0.2553944
48	0xbd1b602e	-0.03793352
49	0x3b325ce3	0.002721601
50	0x3d2558d9	0.040367935
51	0xbe07b6c0	-0.13253307
52	0xbd13c6e4	-0.03607835
53	0xbf2e08eb	-0.6798236
54	0xbe3d4388	-0.18482792
55	0xbdf32959	-0.11873121
56	0xbe44f20a	-0.19232956
57	0xbf0aeaff	-0.54264826
58	0xbe0d696f	-0.13809751
59	0xbecc0325	-0.3984615
60	0x3d5f8fee	0.05458062
61	0xbe280cc1	-0.16411115
62	0x3c9d653d	0.019213313
63	0x3de82669	0.11335451
64	0xbd9b9fa4	-0.075988084
65	0xbe23ec26	-0.16008052
66	0xbec9ff18	-0.39452434
67	0x3ea6fbbd	0.32613936
68	0x3d4c1af0	0.049830377
69	0xbe4a90e2	-0.19781831
70	0x3f356c74	0.7086861
71	0xbf37ee9d	-0.7184847
72	0xbeae9311	-0.34096578
73	0xbe4006a3	-0.18752532
74	0x3e9e3a21	0.30903724
75	0x3de0727d	0.10959337
76	0x3e836522	0.25663096
77	0x3f32c4ba	0.6983143
78	0x3d093de6	0.033506297
79	0xbdccda1c	-0.100025386
80	0x3df7e09f	0.1210339
81	0x3e0a21b8	0.13489425
82	0x3df78390	0.120856404
83	0xbe8b4c7b	-0.27206787
84	0xbd3ebaaa	-0.046564735
85	0x3e8f1541	0.27945903
86	0x3dc8ad6d	0.09798703
87	0xbe43b076	-0.19110283
88	0xbed03132	-0.40662533
89	0xbedd2756	-0.43194073
90	0x3ec307b4	0.38091815
91	0xbd81638d	-0.06317816
92	0xbe6a994e	-0.22910044
93	0xbeb91f5d	-0.3615674
94	0xbf0b9bc5	-0.5453456
95	0xbe05429d	-0.13013692
96	0xbebe00ec	-0.37110078
97	0x3dd8a80f	0.1057893
98	0x3f103c0e	0.56341636
99	0x3e27ae43	0.1637507
100	0xbeded28a	-0.43520004
101	0x3e344b6f	0.176069
102	0x3ea1c14d	0.3159279
103	0xbe7f7e30	-0.2495048
104	0xbd93e5d5	-0.07221571
105	0xbe0428bd	-0.12906165
106	0x3e8ad9d3	0.27119312
107	0x3dfcac08	0.123375
108	0x3eac6cfd	0.336769
109	0x3d1a87e0	0.037727237
110	0xbd9912de	-0.07474302
111	0x3eb55fa1	0.35424522
112	0xbe06a324	-0.1314817
113	0xbeb7f7ab	-0.35931143
114	0xbe4f3465	-0.2023483
115	0xbe503f4a	-0.20336643
116	0xbe838caf	-0.2569327
117	0x3e02f8d8	0.12790239
118	0xbe4aaa00	-0.19791412
119	0xbe6d058b	-0.23146646
120	0x3e0af976	0.13571724
121	0xbefcb8b0	-0.49359655
122	0x3d2f2451	0.042759243
123	0xbc03bca7	-0.008040584
124	0x3e0e9590	0.13924241
125	0xbe37b815	-0.17941315
126	0xbe0eca0a	-0.1394426
127	0x3d9dbb9e	0.07701801
128	0xbebcd369	-0.36880043
129	0x3e2d4479	0.16920651
130	0x3de81a9c	0.113332
131	0xbe8b311a	-0.271859
132	0x3dd977e9	0.10618574
133	0xbe34a7f6	-0.17642197
134	0xbe977f9e	-0.29589552
135	0xbcbe813e	-0.023254987
136	0x3d5d215c	0.053986892
137	0xbd519b51	-0.051173512
138	0x3e23b2c0	0.15986156
139	0x3d3dc2d6	0.04632839
140	0x3e0ef882	0.13961986
141	0xbee41006	-0.44543475
142	0x3e7f1b21	0.24912693
143	0x3ca7f63b	0.020503154
144	0xbd272182	-0.04080344
145	0xbd537e2d	-0.051634002
146	0xbe768294	-0.24073249
147	0x3d1c8e0b	0.0382214
148	0xbe575247	-0.2102748
149	0xbcf231e8	-0.029564813
150	0xbe999033	-0.29992828
151	0xbead7ccc	-0.33884275
152	0x3e0130d8	0.12616289
153	0x3ecae5fa	0.39628583
154	0xbe920f7b	-0.28527436
155	0x3de3edf7	0.111293726
156	0x3d5ed450	0.054401696
157	0xbe9ab822	-0.30218607
158	0xbe330305	-0.1748162
159	0x3ebab615	0.36467043
160	0xbefa0804	-0.4883424
161	0x3e504dbc	0.20342153
162	0x3d868f76	0.06570332
163	0xbebf5361	-0.373683
164	0x3e096298	0.13416517
165	0xbed85b5a	-0.42257196
166	0xbdd14bbc	-0.10219523
167	0xbe296b53	-0.16544847
168	0x3ef1c9e5	0.47224346
169	0xbe1a0bb1	-0.15043522
170	0xbf2a08cc	-0.6641967
171	0x3e707d9b	0.23485415
172	0x3daddbe6	0.08489208
173	0xbd9e070f	-0.0771619
174	0xbe8a3ca0	-0.26999378
175	0xbd74cfe6	-0.05976858
176	0x3e6590d8	0.22418535
177	0xbd08a6df	-0.033362266
178	0x3df539d1	0.11973918
179	0x3dd43814	0.103622586
180	0x3e081b20	0.13291597
181	0x3e882ccf	0.26596686
182	0x3d2690f8	0.040665597
183	0x3e9fc756	0.3120677
184	0xbd7aaef9	-0.061202023
185	0xbbcc58ea	-0.0062361853
186	0xbc660e17	-0.014041445
187	0xbd0ed22b	-0.0348684
188	0xbf116017	-0.56787246
189	0xbea74698	-0.32671046
190	0x3eb8ca04	0.36091626
191	0x3e4be647	0.19912063
192	0xbee0433a	-0.4380129
193	0xbf260324	-0.6484854
194	0x3e3b7bdd	0.18308969
195	0xbe9a3d7d	-0.30125037
196	0x3e3a284c	0.18179435
197	0xbd24b8dd	-0.040215362
198	0xbd47bc4a	-0.04876355
199	0x3d8bc0d5	0.06823889
200	0xbd6b3144	-0.05742003
201	0x3caf5f20	0.021407664
202	0x3e775dd6	0.2415689
203	0xbe963dda	-0.29344064
204	0xbe1eaa81	-0.1549473
205	0xbea09a32	-0.31367642
206	0xbe8acdd2	-0.27110153
207	0xbe416324	-0.18885475
208	0x3e25692f	0.16153406
209	0xbd291b77	-0.04128596
210	0xbeb01152	-0.34388214
211	0xbe98d2e5	-0.298484
212	0xbec0e963	-0.3767806
213	0xbdbe5336	-0.09293215
214	0xbda498dc	-0.08036968
215	0xbe1c64b8	-0.15272796
216	0xbe50e3dd	-0.20399423
217	0xbe7294af	-0.23689531
218	0xbd00c979	-0.03144214
219	0x3d78bfcf	0.060729798
220	0x3eaa4aff	0.33260342
221	0x3ead07d3	0.33795032
222	0x3db79c8c	0.08965406
223	0x3c2805eb	0.010255317
224	0x3d7ad46f	0.06123775
225	0xbd617ee0	-0.055052638
226	0xbea1556f	-0.31510493
227	0xbc4f9c26	-0.012671506
228	0xbf10c445	-0.56549484
229	0xbf0f4056	-0.55957544
230	0x3cf61702	0.030040268
231	0x3d93515e	0.07193254
232	0x3d476001	0.04867554
233	0x3ca83ffd	0.020538324
234	0xbd95b5e1	-0.07310081
235	0xbe724381	-0.23658563
236	0xbea1b5d7	-0.31584045
237	0xbe452e6f	-0.19255994
238	0x3d436474	0.04770322
239	0x3da24e4d	0.07925091
240	0xbd88cb2c	-0.06679377
241	0x3df20782	0.11817838
242	0x3eaaefcd	0.33386078
243	0x3e1ef537	0.1552323
244	0x3e5e4b1d	0.21708341
245	0x3eb35bd4	0.35030997
246	0xbed08e91	-0.4073377
247	0x3e0b79a8	0.13620627
248	0xbf03b18e	-0.514428
249	0xbe9c5192	-0.30530983
250	0xbf4b4484	-0.7940142
251	0xbef408ee	-0.47663063
252	0x3e7c5096	0.24640116
253	0xbe557dc6	-0.2084876
254	0xbe983ce1	-0.29733947
255	0x3cf3576a	0.029704768

layers.7.bias f4 [10]
0	0xbe7382c1	-0.23780347
1	0x3df41cdc	0.11919567
2	0xbd81485a	-0.06312628
3	0xbde60738	-0.112318456
4	0x3bcea3bd	0.00630614
5	0xbe7bd77e	-0.24593922
6	0xbe37a679	-0.17934598
7	0xbcc713ff	-0.024301527
8	0x3e669577	0.22517954
9	0xbe74b747	-0.2389804

layers.11.weight f4 [10, 490]
0	0x3dc94d43	0.0982919
1	0xbf0d48b2	-0.5518905
2	0x3e21ae4b	0.15789144
3	0x3d64fd19	0.055905435
4	0xbd42c5d0	-0.04755193
5	0xbda4efac	-0.08053526
6	0x3f0a2cf1	0.53974825
7	0xbeceb610	-0.40373278
8	0xbc90dc65	-0.017683217
9	0x3e258556	0.16164145
10	0xbdb54855	-0.08851687
11	0x3e1b22f8	0.15150058
12	0xbd1243e6	-0.035709284
13	0x3de71ec8	0.11285168
14	0xbd64489d	-0.055733312
15	0x3e7600ba	0.24023715
16	0xbc74d404	-0.014943127
17	0x3db82faf	0.0899347
18	0x3d3aad63	0.04557551
19	0x3e897aac	0.26851404
20	0xbd0c9bc1	-0.034328226
21	0xbb94db33	-0.004542732
22	0x3dc8c75e	0.09803651
23	0xbdff4f64	-0.124663144
24	0x3db909b4	0.09035054
25	0x3c17eba1	0.009272487
26	0xbebace03	-0.364853
27	0x3ea1d9de	0.31611532
28	0xbeb6f1a3	-0.3573123
29	0x3cdad0c4	0.026710875
30	0xbd004539	-0.031316016
31	0xbc6a3f13	-0.014297265
32	0x3e97896a	0.29597026
33	0xbd6ce49f	-0.057835218
34	0x3e245594	0.1604827
35	0xbe372a5e	-0.17887256
36	0xbe642d18	-0.22282827
37	0xbd352667	-0.044226076
38	0xbd91df2d	-0.071226455
39	0xbdb4d9b6	-0.088305876
40	0xbe395140	-0.180974
41	0x3e1b9a78	0.15195644
42	0xbcd46c95	-0.025930682
43	0xbe0cb0b5	-0.13739283
44	0x3e1002f4	0.14063627
45	0xbd1f854c	-0.03894548
46	0xbcf43486	-0.029810201
47	0x3dd1e426	0.10248594
48	0xbc12841e	-0.008942632
49	0x3de7dcc3	0.11321404
50	0xbd3f7877	-0.046745744
51	0xbc217007	-0.00985337
52	0xbd86ca47	-0.0658155
53	0xbda0d553	-0.07853188
54	0xbdd0f1e4	-0.10202387
55	0x3e324e02	0.1741257
56	0x3dbea636	0.09309046
57	0x3e5a517d	0.21320148
58	0xbd218bbd	-0.039439905
59	0xbe60c4bc	-0.21950048
60	0x3e699dac	0.22814053
61	0x3dbb708f	0.09152328
62	0xbe4edc4e	-0.20201227
63	0x3e259c5b	0.16172926
64	0x3e9a6f26	0.30162925
65	0xbe0fb5ec	-0.14034241
66	0xbebe79ce	-0.37202305
67	0x3e3a3105	0.18182762
68	0x3cf9753c	0.03045141
69	0xbe401a66	-0.1876007
70	0x3e04e94d	0.12979622
71	0x3df5a9ab	0.11995252
72	0xbc016de7	-0.007899738
73	0xbdd0bbb0	-0.101920485
74	0x3d8da2cb	0.06915816
75	0xbf043f11	-0.5165873
76	0xbd55a700	-0.052161217
77	0x3e1cdaa8	0.15317786
78	0x3e25ee0a	0.16204086
79	0x3d713d25	0.058896203
80	0x3c385540	0.011250794
81	0x3e4ec8cb	0.20193784
82	0x3b6197b9	0.003442271
83	0x3e6a1cc1	0.22862531
84	0x3ed54075	0.4165074
85	0xbd0416ef	-0.032248434
86	0xbe6053e7	-0.21907006
87	0xbd463d21	-0.04839814
88	0x3da29e07	0.079402976
89	0xbe549132	-0.20758513
90	0x3e735bf7	0.2376555
91	0xbef390f1	-0.4757152
92	0x3d301a12	0.042993613
93	0x3e097720	0.13424349
94	0x3e40cea0	0.18828821
95	0xbdde7e60	-0.10863948
96	0xbc4e397a	-0.012586946
97	0xbe0b4dc2	-0.13603881
98	0xbcb25b1b	-0.021771958
99	0xbdb6a03a	-0.089172795
100	0x3d9f3212	0.07773222
101	0xbdfbc6c8	-0.12293774
102	0x3e9841fc	0.29737842
103	0x3e26701d	0.16253705
104	0x3ee4d6ee	0.44695228
105	0xbde8b8c0	-0.11363363
106	0xbe013ffd	-0.12622066
107	0x3e5a4f60	0.21319342
108	0x3e300f62	0.17193368
109	0x3efb6bc7	0.49105665
110	0x3adc4b20	0.0016807057
111	0x3e0cb144	0.13739496
112	0x3e0fcd7e	0.14043233
113	0x3e4a057e	0.19728658
114	0x3e294298	0.1652931
115	0xbe6a3989	-0.2287351
116	0x3e3096dd	0.1724505
117	0x3d7bd5bc	0.06148313
118	0x3dad8534	0.08472672
119	0x3e914ab4	0.28377306
120	0xbe2c8b86	-0.16850099
121	0xbe12a3b4	-0.1432026
122	0xbeb8a769	-0.36065224
123	0xbe55b24f	-0.208688
124	0xbe399b9f	-0.18125771
125	0xbe013102	-0.12616351
126	0xbd4c1415	-0.04982384
127	0xbc89eaf7	-0.016835673
128	0x3e3c8edc	0.18413872
129	0xbde5dca4	-0.112237245
130	0xbeac61f8	-0.33668494
131	0xbe2bc9c9	-0.16776194
132	0xbe95fd1e	-0.29294676
133	0xbe33ac8a	-0.17546287
134	0x3cebb68d	0.02877357
135	0x3d66239b	0.0561863
136	0x3c48b698	0.012250565
137	0xbd22757b	-0.03966282
138	0x3b8e2b59	0.0043386635
139	0xbea2ec93	-0.31821117
140	0xbf502362	-0.8130399
141	0xbd8aba76	-0.06773846
142	0x3e3d6792	0.1849654
143	0xbdf83e62	-0.121212736
144	0x3d4dc6de	0.050238483
145	0x3d043d20	0.032284856
146	0xbe5a7586	-0.21333894
147	0xbd7af7e3	-0.06127156
148	0x3e4406ab	0.19143169
149	0x3d46314e	0.048386864
150	0xbd55af13	-0.052168917
151	0xbdfa9919	-0.12236232
152	0x3d88fcd7	0.066888504
153	0x3c9efdcf	0.019408135
154	0xbd8af3a5	-0.06784753
155	0x3e392b69	0.18082966
156	0x3dcf96ef	0.1013621
157	0x3e2f2ef4	0.17107755
158	0xbea5ce6d	-0.32384053
159	0x3d92e5a8	0.0717271
160	0xbb726d46	-0.0036991402
161	0x3dbcd96d	0.09221158
162	0xbe92dd61	-0.28684524
163	0xbdf560b1	-0.11981333
164	0x3de54aff	0.11195945
165	0xbe69ad2f	-0.2281997
166	0xbd5d479f	-0.05402338
167	0x3ecafc6f	0.39645717
168	0x3d9445e3	0.07239892
169	0xbe70b034	-0.23504716
170	0xbe9d1568	-0.30680394
171	0x3e9e6a41	0.3094044
172	0xbebf66c2	-0.37383085
173	0xbe48b8c3	-0.19601731
174	0x3e957dbb	0.29197487
175	0x3de0f298	0.10983771
176	0xbdd1ffa5	-0.102538384
177	0xbe4c9042	-0.19976905
178	0x3e0d3600	0.1379013
179	0x3d9a9239	0.07547421
180	0xbe0c90a1	-0.13727047
181	0xbd2aa379	-0.041659806
182	0x3ca0af6f	0.019614903
183	0xbe60992e	-0.21933433
184	0x3dece762	0.1156757
185	0x3ea0cf53	0.31408176
186	0xbe701068	-0.23443758
187	0xbd79a904	-0.0609522
188	0xbcebd80c	-0.028789543
189	0x3d9086e7	0.070569806
190	0xbed169d3	-0.4090105
191	0xbe123d2f	-0.14281152
192	0xbca5577c	-0.020183317
193	0xbc30ec9a	-0.010798598
194	0xbdc7cfa6	-0.09756403
195	0xbd5ec06a	-0.05438272
196	0x3d6086fc	0.05481623
197	0xbe3eac96	-0.18620524
198	0xbdea696d	-0.114458896
199	0xbc79f16f	-0.015255316
200	0x3d46ddc2	0.04855133
201	0xbe29c13e	-0.16577622
202	0x3c89efb1	0.016837927
203	0x3e629cb9	0.22130097
204	0x3c9c2a0f	0.019063024
205	0x3c6a199c	0.014288332
206	0xbe4d4c6c	-0.20048684
207	0xbdb6cd10	-0.08925831
208	0x3e590dd9	0.21196689
209	0x3e3b64fc	0.18300241
210	0xbdfbd187	-0.122958235
211	0xbc9b2858	-0.018940136
212	0xbe57049e	-0.20997855
213	0x3e0dea29	0.13858856
214	0xbe646cf4	-0.22307187
215	0xbd9430a7	-0.07235842
216	0xbdd32241	-0.10309268
217	0x3dfcdc16	0.123466656
218	0xbe02311e	-0.12714049
219	0x3d8941ce	0.067020044
220	0x3d9ca278	0.07648176
221	0xbe0843f3	-0.1330717
222	0xbead4252	-0.3383966
223	0xbdcfac3a	-0.101402715
224	0x3b8206b4	0.003968084
225	0x3e950737	0.29107067
226	0xbd96359b	-0.07334443
227	0x3dc2a079	0.09503264
228	0xbc0e2510	-0.008675829
229	0x3d3fe0d9	0.04684529
230	0xbdfa6935	-0.12227098
231	0x3e1ddd68	0.15416491
232	0x3e0879f1	0.13327767
233	0x3cdcfbe5	0.026975581
234	0x3e6a780d	0.22897358
235	0x3e40c0e2	0.18823579
236	0x3e55e768	0.20889056
237	0xbc7eed83	-0.015559557
238	0x3ed241f1	0.41065934
239	0x3d80a8bd	0.06282184
240	0x3e349bff	0.17637633
241	0x3e54006e	0.20703289
242	0x3c04a714	0.008096475
243	0x3df3fa7a	0.11913009
244	0xbd9a4218	-0.07532138
245	0x3e2b9ea3	0.16759734
246	0x3f08f984	0.5350573
247	0x3d61e2f8	0.055148095
248	0x3d198c3b	0.03748725
249	0xbe5716bb	-0.21004765
250	0x3d6cb720	0.05779183
251	0x3e1a62dd	0.15076776
252	0x3d4540d2	0.04815752
253	0x3eb6aef1	0.35680345
254	0x3d41abb6	0.047282897
255	0xbd96bc50	-0.073601365

layers.11.bias f4 [10]
0	0xbd21182d	-0.039329696
1	0x3dcf07bd	0.10108898
2	0x3d71c35f	0.05902421
3	0x3d22db15	0.039759714
4	0xbea03251	-0.31288388
5	0x3be060b7	0.006847467
6	0x3e64c10a	0.22339264
7	0x3d9e0e8f	0.077176206
8	0x3e125a26	0.14292201
9	0xbdc7ef0d	-0.09762392
